save_model/save_D/UAGAN_discriminator.pth (torch, 861278 bytes, 21 tensors)

model.0.weight f4 [16, 1, 3, 3]
00000000: f1a1 b83d 0b21 09be 28a8 ec3d 30b8 bfbd
00000010: 7754 a3bc 72bc 1abe 9e60 4b3e 26bc 08be
00000020: 1063 483e 4a88 533e 8369 62be 5aa2 913e
00000030: 7c02 2f3e 9302 d83d 3507 3bbe 67ec 94bd
00000040: f466 6cbd e079 b9be a0fe 4ebe 08ff 96be
00000050: b0fe 823e fa1b 263e 5a61 1fbe b364 88bc
00000060: c699 15be 90ff febd 7c38 34be db4f 3abe
00000070: 4a4e c63e f629 1c3e cae5 983e 362c 413e
00000080: 46e3 eb3b 4022 7fbd 5bb0 953e 39aa aa3e
00000090: ff26 613e 6f14 54ba 2e2a a93e cb28 24be
000000a0: ee79 94be 04d6 89be 6c02 bf3e 504f 0d3e
000000b0: 534f 6d3e 958e 0abe b246 843e 61cc 6abe
000000c0: 2259 acbd caef bd3d b21f 75be dda1 92be
000000d0: 3a03 1bbe 5bb6 b13d cff0 c03d 65a2 76be
000000e0: 6c4d 6e3e 718c d73e 3720 e93e 915b 323e
000000f0: 25a7 f23c 4be1 af3e 008a c43e 857f 9d3e
00000100: c6c3 873e 5d53 babe 85cc 3b3d 645b 043e
00000110: f160 b1be 9c1b 48be 4a2a 95bd a680 933e
00000120: e814 323e 2871 1fbd 2551 d03d 9098 223e
00000130: 62c6 23bc f4ff 8c3e 6dd1 d8bd 9fcb 13bd
00000140: 292b 36bd 5114 06be cfa9 5f3e 5ef7 b1bd
00000150: 1c53 483d 9478 cf3e cb0c bb3e a005 14be
00000160: f9ab 24be 9a03 9fbd 7a41 9dbe 4f08 23be
00000170: c93f 043d 5c82 863e dc70 d93d a15c 2ebe
00000180: 7360 7e3e e4a5 863e 9f20 b93e 77da 733d
00000190: 2566 61be eb9f 61bd e41a 95be ad05 61be
000001a0: f74d aabe 4f11 1c3d e49c cfbd 77cf 7bbe
000001b0: 46a5 8a3d 4b0b 4bbe c36f 1b3e 19d9 c43c
000001c0: 1d96 833e ff86 9d3d c8e5 803e 5298 bb3e
000001d0: 58b0 b93e 2176 36be 7a3b 8c3e 3a43 533e
000001e0: ef37 52be bd90 523e 8298 96be 5dc4 8b3e
000001f0: 3233 8c3e 5cd9 7b3e ad90 a23c 1fa2 4f3e
00000200: cdc9 43be 6e32 b03d 6230 ca3e b174 ad3e
00000210: f27a 4a3e fe6b 19be 7355 01be aa7a 8abe
00000220: 18fb a13e 2896 f03d 6d04 acbe c80f 45be
00000230: 848c 27be 55e8 8bbe 93b3 2b3e f550 853d
0.09015263 -0.13391511 0.11555511 -0.09361303 -0.019937737 -0.15110949 0.19861075 -0.13353023
0.1956904 0.20657459 -0.22110562 0.28444177 0.17090791 0.10547366 -0.18264468 -0.07271653
-0.05771537 -0.36225796 -0.20214319 -0.29491448 0.25584936 0.1622161 -0.1556448 -0.01664958
-0.14609441 -0.124510884 -0.17599672 -0.18194525 0.38731605 0.15250382 0.29862815 0.18864521
0.007198724 -0.062288523 0.2923611 0.33332995 0.21987532 -0.0008090203 0.33039993 -0.16031186
-0.28999275 -0.26921093 0.37306535 0.13799787 0.23174791 -0.13530953 0.25835186 -0.22929527
-0.08415438 0.09274252 -0.23937872 -0.28639117 -0.1513795 0.0867736 0.094209306 -0.24085386
0.23271722 0.42099336 0.4553239 0.17417742 0.029620716 0.34351572 0.38386536 0.30761352
0.2651655 -0.36391726 0.045849342 0.12925488 -0.34644273 -0.19541782 -0.072834566 0.28809088
0.17390788 -0.038926274 0.10171727 0.1587851 -0.009996029 0.27539027 -0.1058682 -0.03608286
-0.044474754 -0.13093688 0.2184212 -0.0868976 0.048907384 0.4052168 0.36533198 -0.14455271
-0.16081227 -0.07764359 -0.30714017 -0.15921138 0.032287393 0.2627133 0.10617229 -0.17027523
0.2484148 0.2629844 0.361577 0.059534516 -0.22011621 -0.05508415 -0.29122078 -0.21974821
-0.33262607 0.038102444 -0.101373464 -0.2459086 0.06769805 -0.19828527 0.15179352 0.024029301
0.25700465 0.07691764 0.2517531 0.3663965 0.36267352 -0.178185 0.27389127 0.20631114
-0.2052915 0.20563026 -0.2941323 0.2729825 0.2738281 0.24594635 0.019844377 0.20276688
-0.1911995 0.08603369 0.39490038 0.3387809 0.19773462 -0.14982602 -0.12630253 -0.2704671
0.31636882 0.1174739 -0.33597127 -0.19244301 -0.16362196 -0.27325693 0.16767721 0.06509582

model.0.bias f4 [16]
00000000: 8819 55be edda 033e 5a6e 8ebd d4b4 a23d
00000010: 555c 33be 582a 74be 1d77 513d f547 143d
00000020: 2581 04be 1c64 00bc fdc5 0839 3c5d 4dbe
00000030: c4c5 94b8 d705 923c 1f04 6cbe af66 58be
-0.2081052 0.12876482 -0.06954642 0.079446465 -0.1751569 -0.23844278 0.051138986 0.036201436
-0.1293989 -0.007836368 0.00013043727 -0.20055097 -7.094027e-05 0.01782505 -0.23048447 -0.2113292

model.3.weight f4 [32, 16, 3, 3]
00000000: 93f0 f3bc cd25 923c 6d9a 14bd 6840 9e3d
00000010: 27b5 da3c 9ad4 29bc 8441 89bd 55c0 923d
00000020: 1fbc 093d 579c f5bc 0278 463c f397 7c3d
00000030: 9639 1bbd 17de 453d cac2 07bd 1aed 4b3d
00000040: a340 673c 496d 9fbd db39 04bd 2495 a43d
00000050: 602f e4bc 872d 5d3d 7706 b73d f147 9b3d
00000060: 760e 783c 4c53 71bd 31ce 603d 56f8 cb3c
00000070: 8d61 35bd e080 15bc dd0c 9f3d d13a 143d
00000080: 1fee 5fbc 1d2f 1c3d a3f7 bf3d 5401 e93d
00000090: 07a1 75bd 1049 233d 18bc ae3d 1794 d63d
000000a0: b217 05bb 4663 633d 504b babd 153c 4dbd
000000b0: d552 083d 2faf aebc a8a4 75bd ac90 24bd
000000c0: 3a27 033d 507c 0c3c b71b 8fbd a74d 9bbd
000000d0: 329d 803d 9aeb 66bd 5193 873d f560 edbc
000000e0: defd 36bd 8104 babc 9a57 1fbc b002 97bd
000000f0: da1c 923d fada 57bb 6df5 e73d 9263 58bd
00000100: b73f ae39 fc82 d7bd 5c5e 99bb 4a42 ddbc
00000110: 760f 1ebd 1275 713d 2253 6fbc 1a76 733d
00000120: 572c 3e3d ba0b 88bc f8b8 89bd 5b9b a53d
00000130: e373 8a3d b2f2 45bd 9216 9f3d c0e8 cc3d
00000140: bbe3 0cbd 2d57 873a fe9c ccbd 9c61 3fbd
00000150: 7d42 86bd 8a7c fbbb 75b9 0e3d aecf 1dbd
00000160: 8349 023e de52 c43d 55da 50bd 31ae 4f3d
00000170: 2ea0 4b3d 9abb 6f3d b64d d33c c12f 3c3d
00000180: 5282 843d 4edf 2f3e f294 1a3e be3b 03bd
00000190: 0371 d63c 8874 c9bd 1e96 7c3a 29d4 61bd
000001a0: 25fb 333d bd28 dd3c 02ec 19bd 378b 6abd
000001b0: 5b5a 9f3d 533a babd b119 77bd 4e52 833d
000001c0: 0876 a53d fde4 153d 9b83 c03d 7f40 133d
000001d0: 65cc b4bb 17ab 7bbd 85fa e2bd 7637 c5bd
000001e0: 28dd b93c 9529 b5bd 1247 afbc 3f8d 85bc
000001f0: 6def 03bd af4a 54bd 8f55 a23d 7e75 38bd
00000200: 85d8 7cbc f7d9 1a3b cacd fc3b 8fae dabc
00000210: 83bf 26bd 7b09 d13d 63ae 8d3d 45c3 c8bc
00000220: f724 fb3c 58f2 46bd 3e58 603d c3bb c23c
00000230: 3492 013d 7f05 45bd afd5 103d 3265 53bd
00000240: c117 82bd df60 23bd 6a86 533d 62f3 b5bb
00000250: 030e 883d 8fa5 8a3c 429a abbd 4a0e 973d
00000260: 5408 64bd dd22 7b3c ea0e 353d d344 193d
00000270: 92bd e1bd ea22 093c cf3d 4c3c e830 043d
00000280: af8c da3c 081b 54bc 894a a43d 3525 2c3d
00000290: c14d 763d 82a4 583d e872 a3bd 6f95 00bd
000002a0: 0a0d 82bd 61d6 a0bd 2eb2 b1bd 37af 39bd
000002b0: 6aa2 64bd 603c aabd 526d 0fbd 6d79 ddbc
000002c0: b6d3 babd aff6 763d 2a90 e53d eae5 c13c
000002d0: f406 68bd 19f0 763c dfb2 4dbc 1eba 4cbd
000002e0: bc6d 023d 3a75 c7bc 7286 26bd f568 323d
000002f0: 763c 7d3a 989f 143d 0418 173d c018 053d
00000300: e048 c03c c6dd a5bc 8f23 953c 840f a93c
00000310: bde3 62bc 8800 99bd cb65 8dbd 490a 15be
00000320: 7cff dcbd e5ce 703d 00bb 003d 8c1d b33c
00000330: e4a9 85bd e449 0c3d ffc1 7ebc 128e b53d
00000340: 938f ef3c e49f b73c 7e48 933d 3c5f cc3c
00000350: 1560 28bd ac57 dfbc f008 093d dfb3 36bd
00000360: 1802 dfbc 29f5 6cbd c22f 9c39 1432 b0bc
00000370: 5378 b5bd b883 68bd 3d8d 5f3d fca3 053c
00000380: 7b49 d7bc 4b4c adbd 5cde a7bc e74e bcbd
00000390: 7209 5abc 6bc0 8ebd 2b29 4e3c 702b 9b3d
000003a0: 42ab 98bb 5498 23bd 8f59 083c 5b6f 113d
000003b0: a02a 90bd 29a5 de3d b484 ac3d cf9e 15bb
000003c0: 7489 30bd d043 dc3d 35d6 683d 14fe 48bd
000003d0: 5861 013d 6265 b13d 3d8f c03c 7a79 7d3c
000003e0: 60b6 f7bb c1d2 96bd 4761 103d e2c1 323d
000003f0: 7454 843b ecc8 613d 0946 6e3d 4051 da3d
-0.0297778 0.01784029 -0.036280084 0.07727128 0.026697708 -0.01036563 -0.06701949 0.07165591
0.033626672 -0.029981775 0.012113573 0.061668348 -0.037896715 0.048307505 -0.03314475 0.049786665
0.014114532 -0.07784516 -0.032281738 0.08036259 -0.027854621 0.053998496 0.0893678 0.07582081
0.0151401665 -0.05891733 0.05488414 0.02489869 -0.044282485 -0.0091249645 0.07766125 0.036188904
-0.013667612 0.03813087 0.09373405 0.113772064 -0.05996802 0.0398646 0.0853197 0.10477465
-0.0020308313 0.055514596 -0.09096396 -0.050106127 0.03328212 -0.021323768 -0.05997148 -0.040177032
0.03201983 0.00857456 -0.06987708 -0.075831704 0.062799826 -0.05637703 0.06619895 -0.028976897
-0.0446757 -0.022707226 -0.009725476 -0.073735595 0.07134409 -0.0032936917 0.11326108 -0.052829333
0.00033235337 -0.1052303 -0.004680438 -0.027009148 -0.038588963 0.058949538 -0.014607223 0.059438802
0.046429005 -0.016607154 -0.06724733 0.08086272 0.06760385 -0.048327155 0.07767977 0.10005331
-0.03439687 0.0010325663 -0.099908814 -0.046723947 -0.065556504 -0.0076747583 0.034844834 -0.038528137
0.12723355 0.09586118 -0.050989468 0.05070323 0.049713306 0.05852852 0.025793891 0.04594398
0.06470169 0.17175028 0.1509588 -0.032039396 0.026176935 -0.0983668 0.00096354063 -0.055133972
0.043940682 0.026996965 -0.03757859 -0.057261672 0.07780906 -0.09093156 -0.060327236 0.06412183
0.08079153 0.036595333 0.09400102 0.03595018 -0.00551753 -0.06144246 -0.11082939 -0.09629719
0.022688463 -0.08845822 -0.021396194 -0.016302703 -0.032210756 -0.051829036 0.07926475 -0.045033924
-0.015432482 0.0023628452 0.0077149617 -0.026694564 -0.040709984 0.102068864 0.06918027 -0.024507174
0.030657275 -0.04857096 0.054771654 0.023771172 0.03163357 -0.048100945 0.035360035 -0.05161018
-0.06352187 -0.039887305 0.05164186 -0.005552695 0.066432975 0.016924648 -0.08379032 0.07375772
-0.055672005 0.015328136 0.044203676 0.03741915 -0.11022486 0.008370141 0.012465908 0.032273203
0.026678411 -0.012945898 0.08022029 0.04202767 0.060132746 0.052891262 -0.07980901 -0.03139251
-0.06350143 -0.078533895 -0.08676563 -0.045333114 -0.055818953 -0.08312297 -0.035016365 -0.02703544
-0.09122412 0.06029385 0.11209138 0.023669202 -0.056647256 0.015071892 -0.012554853 -0.049982183
0.031842932 -0.02434789 -0.04065556 0.043557126 0.00096601935 0.036285013 0.036888137 0.032494307
0.02347225 -0.020247351 0.018205432 0.020637281 -0.013848242 -0.074708045 -0.06904181 -0.14554705
-0.10790917 0.05879106 0.031428337 0.021864675 -0.06526545 0.034250155 -0.015549182 0.088649884
0.029243266 0.022415109 0.07191561 0.024947755 -0.041107256 -0.027263485 0.03345579 -0.044605132
-0.027222678 -0.05785099 0.0002979022 -0.021508254 -0.08860841 -0.05676624 0.054578055 0.008156773
-0.026280155 -0.08461817 -0.020491771 -0.09194737 -0.013307916 -0.069702946 0.012583057 0.075766444
-0.0046590874 -0.039940193 0.008322134 0.035506587 -0.0703938 0.108713455 0.084237486 -0.0022830253
-0.043099836 0.10755122 0.05684491 -0.049070433 0.031586975 0.08661915 0.023505801 0.015470857
-0.0075595826 -0.07364417 0.03524902 0.043641932 0.004038388 0.055123255 0.05817226 0.106600285

model.3.bias f4 [32]
00000000: 5ef5 8b3b eb44 6c3c 3172 81bb 7ad1 233c
00000010: 0287 003d 7bb2 88bd 6407 4cbc 7b62 ef3b
00000020: 492f 28bc 4519 c43c 574e 30bc ed38 0f3d
00000030: ea09 e83c d37b e4bc f054 edbc 7c95 91bd
00000040: e18b 3abd ee3d 7a3c 1c75 d0bd d62d 443d
00000050: 5e2b 8b3b 9abf 43bb 01d7 56bd 44a0 29bc
00000060: eb3f de3c ee1f 8ebb 7765 bfb8 8dc9 9fbb
00000070: 1e50 443b e4b0 d9bb 1ccd 613d 836b ddbd
0.0042711934 0.014420728 -0.0039503803 0.009998674 0.031378753 -0.066746674 -0.012452934 0.007305441
-0.01026518 0.02393783 -0.010760865 0.034966398 0.02832504 -0.027891075 -0.028971165 -0.0710859
-0.045543555 0.015273554 -0.10178587 0.047895275 0.004247113 -0.0029868842 -0.052451137 -0.010353152
0.027130088 -0.0043373024 -9.126489e-05 -0.0048763216 0.002995498 -0.0066434015 0.05512725 -0.10811522

model.6.weight f4 [32]
00000000: c32d 863f e576 853f 62d7 8d3f b9d1 853f
00000010: 6844 853f 6684 823f 6ea0 843f f71e 823f
00000020: 9eec 873f dabd 8c3f b1a0 823f 4a65 783f
00000030: 27ed 813f 7727 883f c826 803f 92f3 823f
00000040: 770c 783f 65b6 843f b771 823f 1a66 813f
00000050: e6fd 863f ef74 7e3f cddd 863f 4990 823f
00000060: 17f9 843f 8e19 833f 5f4c 803f 45da 883f
00000070: f9c3 843f e43e 823f 9b3f 853f f410 823f
1.0482715 1.0426909 1.1081355 1.0454627 1.0411501 1.0196655 1.0361459 1.01657
1.0619085 1.0995438 1.0205289 0.97029555 1.0150498 1.0637044 1.0011835 1.0230582
0.9689402 1.0368162 1.0190953 1.0109284 1.0546234 0.99397177 1.0536438 1.0200282
1.0388516 1.0242174 1.0023307 1.069161 1.0372306 1.0175443 1.0410036 1.0161424

model.6.bias f4 [32]
00000000: 13ae a73c befa 57bc 74bd 86bc c5b1 ffbb
00000010: ef18 31bd d110 86bc ff6e 57b9 3bd8 72bc
00000020: 6abc fa3b 8efe f5bb ad67 14bb 5d2b 4ebc
00000030: 2b9b 2e3c d37a 74bc 92dd b73b 17d0 9cbc
00000040: dbda 8dbc 80d7 aa3c eba1 e7bc 42b3 b0bb
00000050: 71a5 f4bb c933 cebc 37e1 dfbc a22a 353c
00000060: c15d d8bc c699 f53c c5fa 11bd f1b7 94bb
00000070: e026 42bd 8790 8fbc 12dd 8f3c 99c3 0abb
0.020468747 -0.01318234 -0.01644776 -0.007803174 -0.04323667 -0.01636544 -0.00020545347 -0.014822061
0.0076518552 -0.007507152 -0.0022644803 -0.012583581 0.010657112 -0.014921862 0.00561113 -0.019142194
-0.017316272 0.020854712 -0.02827545 -0.005392463 -0.007466011 -0.025171177 -0.02732907 0.011057528
-0.026411893 0.029980551 -0.035639543 -0.004538529 -0.047400355 -0.01752497 0.01756147 -0.0021173714

model.6.running_mean f4 [32]
00000000: 1369 b93c 4135 c03c 716c 5ebc 2138 b5bb
00000010: 5101 353c e340 a9bb 02e6 7f3b 89a6 b5ba
00000020: 5caa 65bb 8b84 703b 3e45 86bc 0a4d a13b
00000030: 8ee0 0bbb 8a10 aabb 6991 7bbc b4c2 8dbc
00000040: 7baa 03bb 82c7 34bb 376a e4bc 1e3a 283c
00000050: 94f7 c03a 02f5 f1bb 1cf5 d3bc e7b2 ed3b
00000060: 7f0d 1d3c 73d1 e1bb f373 15bc 7e96 183c
00000070: ba98 0c3a d411 58bc f0b7 3a3b 2842 c9bc
0.022633111 0.023462893 -0.013575659 -0.0055303727 0.011047677 -0.005165206 0.0039047007 -0.0013858835
-0.003504417 0.0036700096 -0.01639044 0.004922514 -0.0021343562 -0.00518996 -0.015354493 -0.017304756
-0.0020090628 -0.0027584736 -0.027882678 0.0102677625 0.0014722222 -0.0073839435 -0.025873713 0.007253993
0.009585737 -0.0068914234 -0.009121883 0.009313224 0.0005363334 -0.013187844 0.0028490983 -0.024567679

model.6.running_var f4 [32]
00000000: 4d7b 443c edf2 453b 6d76 7939 5bcf 953a
00000010: 4d26 3f3b c83c 313b b9b1 193a bf9d 6f3b
00000020: 84b8 4f3b 07e7 a13b f456 8f3a 3ac9 9a39
00000030: f3ea 863b e865 b63a 00ab 693a 3dd1 6f3b
00000040: c33a 2b39 4162 743a 847b 383b 1a21 9d3b
00000050: 5919 463b e4c0 f438 afcd a63a 036a 9d3b
00000060: 17a3 0e3b 7a44 8f3b d7b0 cb39 a1e6 683b
00000070: f368 4d3a a248 b73a b8b1 d63a 23f1 3f3b
0.011992288 0.003020461 0.00023790608 0.0011429595 0.0029167116 0.0027044285 0.00058629696 0.003656253
0.0031695673 0.0049408707 0.0010935948 0.00029523094 0.0041173636 0.0013915868 0.00089137256 0.0036593222
0.00016329721 0.00093225023 0.0028149793 0.004795206 0.003022751 0.00011670755 0.0012726093 0.0048038973
0.002176469 0.0043721767 0.00038850933 0.0035537856 0.0007835768 0.0013983438 0.0016379869 0.0029288016

model.7.weight f4 [64, 32, 3, 3]
00000000: 51ae f6bc e56b aa3d 4c35 1e3d 4156 01bd
00000010: 0a9c 92bd a9fb cdbc 74b1 7e3d a98f ef3c
00000020: 5ee4 94bd e8e0 fbbc 9b0b 593d a378 0bbd
00000030: 2b3a 36bd e989 09bc b1e7 2bbd d268 603d
00000040: d471 43bd de42 5d3d 272e 20bd e3e7 4cbc
00000050: 8e66 a5bb b846 96ba d86b 493d 45c0 bdbc
00000060: 2d1c 243d 4b63 19bd 7228 3c3d d615 413d
00000070: a289 d73c 1e7b 1a3d e86b 09bc 27b7 1f3c
00000080: 2f88 b43c a45b f1bc 16dd 9ebc 6934 bb3c
00000090: 44dd 463d 40f0 9a3c f712 46bd 5d25 68bd
000000a0: 6541 a6bc 7d68 ffbc c390 56bd e6ec 1abd
000000b0: b380 40bc a81e da3b 4442 833d 9568 613d
000000c0: 8ee4 0dbd 1259 2dbd d74e 873d 61f5 0f3d
000000d0: f730 1abb e18e 503d 964d 8bbd e30c 293c
000000e0: fede 90bb e89d d6bd c3c1 40bd 1615 ddbc
000000f0: 1d6a d1bc 7ff9 273c 36c6 3bbd f69c 663d
00000100: 28e5 88bc 7283 a4bd 5f04 1abd 52c4 ad3c
00000110: 578d d13c 4429 7cbd 56bc 273c f889 0ebd
00000120: 3cae 103c 1f52 c8bc 2260 30bd 100d c8bc
00000130: bbee a83a f88f 26bd c851 06bd d5fa 25bc
00000140: e25c b6bb 29a7 e83c 52d6 27bd 4da0 723d
00000150: 654d 85bb c624 143c 3a1d 7f3c 9ac3 183c
00000160: 3f6f a4bd c495 01bd d868 c9bc 989f 133c
00000170: 5189 513d 792a a3bc fcd9 7b3d f5b7 a13c
00000180: ecc8 44bd 10b2 a4bc b875 043c f2cb 9abc
00000190: e77a 84bc c703 8a3c 578e f33c 18a3 8dbb
000001a0: 14ee b1bc d467 233d 51de 433d c8cc 9d3a
000001b0: cf58 a43c b080 55bd 42de 923c 80f2 1d3c
000001c0: 90cf ea3c a5a8 823c 06b7 c83c 752c 69bd
000001d0: 1797 a9bc 9c01 9a3c c25d 65bd a829 13bd
000001e0: 611e 0dbb f430 313d 4148 123d 15c1 a23c
000001f0: a4ba c7bc 4cfd 44bd 2ee1 64bc 9417 3b3c
00000200: 77af 42bd d36b 2abd d17a 993d 2c63 863d
00000210: 3dbd 1fbd e6ba 6fbd 1eb7 7fbd e4f2 ab3c
00000220: 5fa9 5f3d 3933 b6bc aa2c f9bc 66d2 41bd
00000230: 5e8a 063c 2146 863c 54e0 a93c a573 9ebc
00000240: 47d6 24bc 38e3 f53c 4dd2 78bd d75d a3bd
00000250: 0e8f aabd 0fbf 07bc dab9 cbbc 811e 9fbc
00000260: a55d 863d 6f0b 623c 37f0 84bc 829c 43bc
00000270: cd48 353d 95a9 c23a e606 77bd 80a7 00bc
00000280: f533 a3bc a5ae 9bbc 8ea6 993d 53a4 843d
00000290: 095a f93c 7b50 1c3a 8a17 19bc 34ef 853d
000002a0: 6f32 833c 8ece 5bbd ae19 ed3b c70b 663d
000002b0: 1ebf 963d 62eb 633c 77ee 22bd 6402 1fbd
000002c0: 4f31 90bc 72f2 1e3d eee4 9dbb c151 71bd
000002d0: 3ebd ac3d 8ea7 babc 6ff9 b53c 2b6f 83bd
000002e0: 2327 04bd 1504 293d e8c0 96bd 41c1 86bd
000002f0: 65be 03bd c6f0 14bd 058b 87bc e58a f4bc
00000300: 741f 643c 5535 ec3c b4f0 14bc bbd0 3e3d
00000310: e0fc 183d 830e f53c f6fc 933c dcaf c53d
00000320: 18e7 3a3d 00b7 17bd 8f17 4c3d 3d37 ddbc
00000330: b54e ce3c d832 6cbd 463d 27bb 4abe d0bc
00000340: 812e adbc 0bac 753b 330a 133d 0ff8 66bd
00000350: 7a5d 55bd 3dbe 38bd 27fd 44bc 1ac5 32bc
00000360: dafc e9bb 7c22 013d 7925 233d 85bb b6bc
00000370: 860c 3c3d 4143 8d3c da73 cb3c 4ce6 25bc
00000380: 9f9b 9bbc b508 293d e18f 893b 7d1d 0bbd
00000390: 6281 473d 329c 55bd e5d8 fc3c 561c 4d38
000003a0: 9224 71bd fabb 9c3c 0836 2a3d 7742 1f3d
000003b0: 3c9e 823d b8fc 103d 9ff7 053c 4e02 33bd
000003c0: 6b44 5d3d 95d5 183d ad12 ab3c 7e47 8ebd
000003d0: a5ba 04bd c334 8437 326e 7fbc cbfe b63d
000003e0: 947a 533c 04d8 ba3c c691 debc 4363 19bd
000003f0: 70b8 4a3d 3bd3 3cbc 3ab2 ce3c 24be 3e3d
-0.030112417 0.083213605 0.038625047 -0.0315764 -0.07158668 -0.025144415 0.06218095 0.029243307
-0.0727012 -0.030746892 0.052989583 -0.034050595 -0.044489067 -0.008394697 -0.041969005 0.054787464
-0.047715977 0.054018848 -0.039106514 -0.012506458 -0.005047626 -0.0011465168 0.049175113 -0.02316297
0.040065933 -0.03744821 0.04593701 0.047139965 0.026310746 0.03771507 -0.008387543 0.009748257
0.022037594 -0.029462643 -0.019392531 0.02285214 0.04855086 0.018913388 -0.04835793 -0.056676257
-0.020294854 -0.031177754 -0.05238415 -0.03782358 -0.011749434 0.0066564865 0.064091235 0.055031378
-0.034641795 -0.042321272 0.066068344 0.03514612 -0.002352772 0.05091751 -0.06801908 0.010318014
-0.004421114 -0.10479337 -0.047059786 -0.026987594 -0.025563294 0.010252356 -0.045843326 0.056302033
-0.016710833 -0.08032884 -0.037601825 0.021211777 0.025580091 -0.06156279 0.010237774 -0.034799546
0.008830603 -0.02445322 -0.04306043 -0.024420291 0.001288853 -0.040664643 -0.032792836 -0.010130604
-0.0055652717 0.02840002 -0.040975876 0.059234906 -0.004068064 0.009041971 0.015570933 0.009323979
-0.08029031 -0.03163697 -0.024586126 0.009010218 0.051156346 -0.019917713 0.061487183 0.019741038
-0.048043177 -0.020104438 0.008084707 -0.018896077 -0.016171886 0.016847504 0.029730959 -0.004322421
-0.02171997 0.03989394 0.04781944 0.0012039179 0.020061878 -0.05212468 0.017928246 0.009640336
0.028663427 0.015949557 0.024501335 -0.056927163 -0.020701928 0.018799596 -0.055997618 -0.0359284
-0.0021533 0.043259576 0.035713438 0.01986746 -0.02438099 -0.048093125 -0.013969703 0.011419196
-0.047530618 -0.041606735 0.074941285 0.06561884 -0.03899883 -0.05852785 -0.062430494 0.020989843
0.054604884 -0.022241222 -0.030416805 -0.047319792 0.0082117 0.016390862 0.02073685 -0.019342253
-0.010060853 0.030015573 -0.060747433 -0.07976883 -0.08328067 -0.008285298 -0.024868894 -0.019423725
0.0656083 0.013796671 -0.016227825 -0.01193917 0.04425888 0.0014851565 -0.060309313 -0.007852435
-0.019922236 -0.019004175 0.07502471 0.06476655 0.03043844 0.000596292 -0.009343991 0.06539765
0.01601526 -0.053663783 0.0072357273 0.056163576 0.073606715 0.0139111 -0.0397782 -0.03882064
-0.017601637 0.038805433 -0.0048185503 -0.058915857 0.084345326 -0.022784974 0.022213666 -0.06417688
-0.032263886 0.04126366 -0.07361013 -0.06579829 -0.032163996 -0.036362432 -0.016545782 -0.029851386
0.013923515 0.028834024 -0.009090591 0.04658578 0.037350535 0.029914146 0.018064957 0.09652683
0.045630544 -0.037039757 0.049827155 -0.027003879 0.025184015 -0.057665676 -0.00255187 -0.025481362
-0.021140339 0.0037486579 0.0358984 -0.05638891 -0.0520911 -0.0451033 -0.012023247 -0.0109112505
-0.007140738 0.031527027 0.03983066 -0.022306213 0.04591038 0.017243983 0.024835516 -0.010125708
-0.018995104 0.04126807 0.00419806 -0.03396367 0.048707373 -0.052150913 0.030865142 4.89022e-05
-0.058872767 0.019132603 0.041555434 0.038881745 0.06377837 0.03539726 0.008176713 -0.04370337
0.054020327 0.037313063 0.020882929 -0.0694723 -0.03240456 1.5760195e-05 -0.015590237 0.08935317
0.012907643 0.022808082 -0.02716912 -0.03744818 0.0494923 -0.011524971 0.02523147 0.04656805

model.7.bias f4 [64]
00000000: b5f3 033c 3720 34bc eff3 f5bc 4acd 133c
00000010: 5943 c9bc 2ae8 e43c 9f91 0bbd 95dd 7abc
00000020: ed2f 163c afe1 e6bb 74b2 1ebb 72c2 7abb
00000030: e09e 603c c0e9 e33c a1bb 34b8 42c8 97bc
00000040: 1ca9 0dbc 0336 313d d22b 51bc c2a4 513c
00000050: 96d2 81bc 072f 1d3d 82e7 36bd 7a78 0e3c
00000060: 9a8c a2bb 4eca 8dba 95bc 16bd 49cc 8dbc
00000070: 2f51 043d 4bb9 e2bc 8d6b d33b 9d50 26bc
00000080: ae49 fd3b 2238 b739 d1ae 573b 6141 f8bb
00000090: b4ed a9bb a856 3d3b e3ac 8e39 a28f 893b
000000a0: caf4 bcbc 0495 073c 9652 333c 8b14 a2bc
000000b0: 0ca0 b13c 11af 03bd 0aab b4ba ad0f 6ebb
000000c0: 59ca e3bc 15ef 5d3b 229a b03c 1536 863c
000000d0: ffc0 153d fabb 18bd 666c 5ebd 17fb 5bbd
000000e0: b438 4538 4a8c 8dbc aefe 903c b762 17bc
000000f0: 8837 7f3c 8c09 5cbd afb3 0fbd 261a f2bc
0.00805371 -0.010994009 -0.030023543 0.009021113 -0.024568247 0.027942736 -0.034074422 -0.015311618
0.0091667 -0.0070459465 -0.0024215253 -0.003826287 0.013709754 0.027821422 -4.3090087e-05 -0.018528108
-0.008646276 0.0432644 -0.012766795 0.012795629 -0.015847486 0.038374927 -0.044654377 0.008695716
-0.0049606087 -0.0010817738 -0.03680094 -0.017309325 0.032303985 -0.027676245 0.00645203 -0.010151056
0.0077297306 0.00034946302 0.0032910595 -0.007576153 -0.005185807 0.0028890762 0.0002721316 0.0041980306
-0.023065943 0.008275274 0.010944983 -0.019785186 0.021682762 -0.03214938 -0.0013783884 -0.0036325261
-0.027806448 0.0033864428 0.021557871 0.01638321 0.03656101 -0.037288643 -0.054302596 -0.053706255
4.702127e-05 -0.01727881 0.017699566 -0.009239844 0.0155772045 -0.053720042 -0.03508347 -0.029553484

model.10.weight f4 [64]
00000000: d32b 803f 1d0b 833f 72b3 813f 99c3 823f
00000010: 8d9a 843f fa72 833f be3a 823f 35e5 823f
00000020: 0d99 823f 1e02 843f 4a0c 823f 46ee 803f
00000030: 3eff 7f3f ae8d 833f 7f02 833f 9113 823f
00000040: 790b 833f 5fc4 843f d616 873f e360 813f
00000050: e795 823f f5e0 823f 0962 833f 1f7b 803f
00000060: bc35 833f 68cf 833f bf9d 823f ee77 803f
00000070: eb7c 823f f229 813f e589 7d3f bbc1 853f
00000080: cbc8 803f 384b 863f 5884 813f 2f4e 813f
00000090: 2f93 843f c9dc 833f e6c8 853f ea1a 813f
000000a0: a90e 843f 6480 833f a411 833f 50c9 843f
000000b0: 6263 843f 58ec 813f 2cdb 7f3f dfc8 833f
000000c0: 6cba 833f bef4 813f 0edc 823f d6f9 803f
000000d0: 52bc 823f da47 803f d755 813f 96cd 833f
000000e0: 4fd1 803f e9bb 813f 6eb2 833f f195 823f
000000f0: 8fb3 843f ac88 803f 8093 833f 5590 833f
1.0013374 1.0237767 1.0132887 1.0215942 1.0359665 1.0269463 1.0174177 1.0226198
1.0202957 1.0313146 1.016 1.0072715 0.99998844 1.0277612 1.0235137 1.0162221
1.0237876 1.0372428 1.0553844 1.0107692 1.0201997 1.0224901 1.0264293 1.0037574
1.0250773 1.029767 1.020439 1.00366 1.0194372 1.0090926 0.99038535 1.0449747
1.0061277 1.0491705 1.0118513 1.0101985 1.0357417 1.0301753 1.0451934 1.0086339
1.0316974 1.0273557 1.0239758 1.0373936 1.0342829 1.0150251 0.99943805 1.0295676
1.0291266 1.0152814 1.0223405 1.0076244 1.0213721 1.0021927 1.0104321 1.0297115
1.0063876 1.0135471 1.0288827 1.0202008 1.0367297 1.0041709 1.0279388 1.0278422

model.10.bias f4 [64]
00000000: 4e65 8c3b b774 4ab9 4381 3cbb a96a 6a3c
00000010: 502d 82bc 780f 143d 0c65 b23c c70a 8a3c
00000020: db7e 26bc e519 f43c c7fc f83b 9b91 47bb
00000030: f6e5 003b 4ce8 8d3b 6cc9 3bbc 94eb acbc
00000040: 7d02 ffbb b482 edbb 81ac f8bb af6c 3fbc
00000050: a502 633b b7b4 0c3c 2466 1fbb ae14 0e3c
00000060: 6274 81ba 2ce0 8d3b 3d87 bfbc 5a3d 2cbb
00000070: 899d 95bc f9df 5fbb ce2c a93c 9cfb b43b
00000080: 21e2 413b 3949 e1bc 36a5 1bbc 7956 b93b
00000090: e50b 913c 40f3 843c bc7f 82b9 80d6 babb
000000a0: ce50 603b 943a c43a 77e4 a83b b8d5 f63b
000000b0: 2ce7 9fbb 020d f5bc b309 cd3c 3151 c8bb
000000c0: 78fc 4e3c 3717 b43c 94fc 513b d501 f3bc
000000d0: 5ea6 893b f1ec d23c 7604 86bc fee3 ebbb
000000e0: a3f5 54bc 3bb2 313b 0971 823c 208b 993c
000000f0: b392 823a b114 e93b afaa adba 51e3 94bb
0.0042845374 -0.00019307701 -0.002876357 0.014307656 -0.015890747 0.036147565 0.021776699 0.016850842
-0.010162081 0.029797504 0.007598493 -0.0030451778 0.0019668317 0.0043306705 -0.011461597 -0.021108426
-0.007782279 -0.007248247 -0.0075889234 -0.011683627 0.0034639027 0.008588008 -0.0024322355 0.008671923
-0.0009876604 0.004329702 -0.023379916 -0.0026281686 -0.018263595 -0.0034160598 0.020651247 0.0055231582
0.0029584246 -0.027500736 -0.009499839 0.0056560603 0.017705867 0.016229272 -0.00024890702 -0.00570184
0.003422785 0.0014971071 0.0051541883 0.0075328015 -0.0048798528 -0.02991343 0.025029039 -0.0061131944
0.012633435 0.021983726 0.0032041417 -0.02966396 0.0042007407 0.025747748 -0.016359549 -0.0071988096
-0.0129980175 0.002711429 0.01592304 0.018743098 0.0009961933 0.0071130623 -0.001324972 -0.0045437

model.10.running_mean f4 [64]
00000000: 7712 b5ba 4f15 003b bf69 3dbb 2e69 a1ba
00000010: 4eb9 90ba c072 a63a cead 85bc 18e5 efbb
00000020: 212e c53b 5767 9b3b cbad a33b 36c3 c0b9
00000030: 5750 3c3b 22a0 4e3b b449 a63a db65 6fbc
00000040: 0b5f 313b 73ef af3b 5df7 c4b9 a616 5bbb
00000050: cac7 8f39 7aa6 863b 02eb 03bc 08bc 85bb
00000060: 693e a5bb f61f b3bb 01e6 d3b9 8914 c8ba
00000070: a561 d9bb 7a20 a9bb e9b3 3bbb e234 6bbb
00000080: 7864 b23b a570 29ba b080 b2bb fe92 733a
00000090: 6993 4d3c 8787 ffba 15e6 a93a 7f49 b8bb
000000a0: 8b44 a4bc 26b9 07bc d522 8fbb 340e 5a3a
000000b0: f442 b23c bea9 e0bb 32d4 82bb 517d f7ba
000000c0: 351e c93a e4df 803b 24b0 aa3b b013 323c
000000d0: 57fe b63b 4a17 37bc 109b 6bbc 9aa0 92bc
000000e0: 2532 81bb e99b 8cb9 c803 85bb 7de0 6dbb
000000f0: a9b3 d0bb a91b 88bc 7cd1 9abc ddc4 11bc
-0.0013814707 0.001954395 -0.002890214 -0.0012314671 -0.0011041553 0.0012698993 -0.016318228 -0.0073210113
0.006017462 0.0047425437 0.004995083 -0.00036766537 0.002873441 0.0031528552 0.001268676 -0.014611687
0.0027064707 0.0053691207 -0.00037568333 -0.0033430248 0.0002742394 0.004109201 -0.008051636 -0.004081253
-0.0050428403 -0.0054664565 -0.00040416422 -0.0015264909 -0.0066339546 -0.005161342 -0.002864117 -0.0035889675
0.0054441057 -0.0006463624 -0.0054474697 0.0009291618 0.012547352 -0.0019495346 0.0012962247 -0.005623996
-0.020052215 -0.008283889 -0.004368166 0.00083181565 0.021760441 -0.0068561723 -0.003992581 -0.0018881952
0.0015344085 0.00393294 0.005208986 0.010868952 0.005584519 -0.011174986 -0.0143802315 -0.017898846
-0.0039427453 -0.00026819043 -0.0040592887 -0.0036297136 -0.0063690734 -0.016614752 -0.018898718 -0.0088970335

model.10.running_var f4 [64]
00000000: e7d9 1e3b 63e3 9d3a 381d e739 d32b e13b
00000010: e2fe 6b3a eda8 9b3b 4ba1 2a3c b00f d43a
00000020: b386 d63a fae1 743c 71a3 1e3b 8f31 8d3a
00000030: 0282 363a 785b f43b 7506 d63a 3ca7 863a
00000040: 0b8b 193b 79e3 1c3c 94a9 ab3a a77b 893a
00000050: 147d 3c3a 3462 a63b 8c2a db3a 4361 5b3b
00000060: e83e 863a ded1 a23a c983 623a 911f 0b3b
00000070: 74f2 8b3b ac2d e83a 06e4 a73a 713c 273b
00000080: 0666 c13b 6c35 583b 1d64 0f3b 561c c93a
00000090: b5a1 5b3b c6f7 a43b f54d 5a3b 942b 953a
000000a0: b123 193c c4f8 a33b d0f6 693a 9142 a13b
000000b0: 0996 ba3b 28b9 dd3a 3413 103b 9605 d93a
000000c0: 1a1b 863b 1f75 833b 1c0b 313b 365e f53a
000000d0: 04f7 663b b24d e53c c893 3e3a d7b3 363b
000000e0: 7a7a 483b abbe 063b f731 943b 68f0 ba3a
000000f0: 14a3 283c a024 083c 2371 6b3c a5e9 8f3b
0.0024238767 0.0012045916 0.00044081523 0.0068716793 0.0009002519 0.004750362 0.010414432 0.0016178992
0.0016367048 0.014946455 0.0024206305 0.0010772216 0.00069621217 0.007457193 0.0016328829 0.0010273228
0.0023428823 0.009575718 0.0013096803 0.0010489122 0.0007190269 0.0050776247 0.0016721054 0.003347472
0.0010242136 0.0012422164 0.00086408533 0.0021228532 0.004270846 0.0017713807 0.0012809045 0.0025518204
0.0059020547 0.0032990826 0.002187974 0.0015343528 0.0033513133 0.0050344197 0.0033310626 0.0011380785
0.009346888 0.0050040204 0.00089250226 0.0049212654 0.005694155 0.0016916143 0.0021984102 0.0016557451
0.004092586 0.0040117647 0.0027014678 0.0018720094 0.0035242448 0.02799115 0.0007269946 0.002787819
0.003059058 0.0020560424 0.004522558 0.001426232 0.010292787 0.008309513 0.014370236 0.0043918663

model.11.weight f4 [128, 64, 3, 3]
00000000: 8fe9 a63c 0bea 713c 7604 3abb 0f38 e0bc
00000010: 0fd4 49bb b5c8 a33c 2fb8 e2bc 790e 003d
00000020: 7a64 48bc 7e46 2fbd b3c6 7e3c df1a 533c
00000030: c961 48bd 2747 0d3c 8e53 10bc 89f9 723c
00000040: 16ee 3e3c 4da1 5ebd 4503 1cbd d9ed 813c
00000050: c590 1c3c 4ef5 a5bd e209 3abd 2fa8 1dbd
00000060: de01 45bd 7a39 fa3c d3ac b1bb 7a92 cfbb
00000070: 374b 863c 8189 25bd 450a 2abd b019 56bc
00000080: aa2b 14bd e435 9cbc 5209 8cbc cc6d f33c
00000090: ae0f 83bd 9ff2 bbbb f46d 6f3a 2ccc 153d
000000a0: cab5 3a3d ad72 f03c 7f29 14bd fbc7 263c
000000b0: 6af3 e1bc 03d0 46bd c46e d6bc 6475 29bd
000000c0: 1909 06bd 67dc 003c 0e7a afbc 3dda 993c
000000d0: 4d76 de3a 680e 35bd 002b 79bc 72bd bd3c
000000e0: 413d d33c 0202 613c 292f 0cbd 86ac ecbc
000000f0: d4dc d9bc 377b 3e3c ae46 b43c 6d1c 54bc
00000100: dce8 eebc 8e86 17bd 372f 4dbd c437 2abd
00000110: 9dbd 36bc 9e7c 29bd 96e3 40bd 990e 8ebb
00000120: dd27 37bd b80c f53c dabf 023a fdb4 1bbd
00000130: d55f 21bd 83e7 82ba 0375 b4bc 6dd1 74bc
00000140: 047e 2fbd 57bc 0fbd e9ad 45bb 116a c43c
00000150: 150e e03b b9d6 0c3d 57ef 41bb 055d 353d
00000160: a663 b3bc 258f 31bd 1b53 a4bb 735b 5b3c
00000170: 7cf6 78bb 4f72 003b 40bb 8e3c 79f2 ab3c
00000180: cb0d 31bc cc71 36bd 63e2 6e3c d505 ab3c
00000190: d13f ea3c e8c5 26bc a3d9 9b3c cc8c 1c3c
000001a0: a5a7 6fbc bcb4 b13c daf0 a13c 3f36 063d
000001b0: 6fc5 453c cbe9 863d 5b57 883d cc0a a1bc
000001c0: 3ec3 303d 14d5 b53c cd23 0fbd d2ee 333b
000001d0: 720d 6b3c f48d d9bc 11c6 10bd 05c8 143c
000001e0: a70b 803c 029b e9bb 907a 70bb a5ca 52bc
000001f0: 8abc 3abd 2821 013d 2b49 0fbd 7e4d 8bbc
00000200: 105d 7bbc 999d db3b d867 ddbb 72ba 05bd
00000210: 6bee 00bd 2319 273d 6ff7 ff3c bb9c 32bd
00000220: 1052 d93c e045 8f3c 8a14 53bd 25e4 9ebc
00000230: e2d5 12bd 910a c93c 28d1 873b bc79 4d3c
00000240: b90d 82bc da59 3ebc 9701 d33c 3081 d1ba
00000250: afef e83b 7177 b7bc d6a6 d1bc 9e15 113b
00000260: 1014 903c bef2 01bb 71e9 6fbc 8ed1 383d
00000270: c636 d0bc 7a88 263d 8fd7 353b 5f6e 533d
00000280: d1a2 0ebc 9e24 043c ccf5 253d ed11 fb3b
00000290: c202 693d 0dd2 713d 3a6b 0a3d 4533 e8bc
000002a0: 546b bdbc 4a16 953c 3677 413d 55bd 113c
000002b0: 5528 a83c 2202 00bd a66d 06bc 0146 b83c
000002c0: a142 5e3d 4f77 17bd 1f55 103c 5eaf 2dbd
000002d0: dac0 3c3b 09ca 803c 18cb d93c ac96 28bc
000002e0: ea3c 47bc 8518 a3bc b3c4 01bc 0d91 f53c
000002f0: 9203 94bc 5472 163c 28ee 9cbb 1540 36bc
00000300: 0b07 16bd b543 cd3c aebf c2bc 5f67 ca3c
00000310: bc1c ff3c 7998 d2bc 4e1f 193c 4b86 86bb
00000320: ff99 843c 76e2 0cbd f642 be3b b2f0 13bd
00000330: 7536 3c3c 8020 c9bb f889 7f3a cab6 ea3c
00000340: a3f2 993b 7b44 923c 51ad 48bc 2786 23bd
00000350: 88de 24bd 5712 b8bc afd8 09bd 8202 17bd
00000360: 5282 dabc b30d 6dbc a1cf 2e3b 727a acbc
00000370: 5d0d 743b dc68 03bd beaf cb3c ea6d 7ebc
00000380: 6c1d cebc 5fdd 64bc 31ed 94b8 4b8d 74bc
00000390: 894c 9e3b 24e7 323c 75e9 2abc 0b92 91bb
000003a0: ced7 0dbd 8918 5b3c 487d 8fbb e57f 883d
000003b0: d1b0 43bc 375b 5dbd 36af 953d 3429 3b3d
000003c0: 0e50 123d 4f4e cbbc 1969 4c3c 378b aabc
000003d0: b56c 37bc ea3c 0fbd 8c96 78bc 596f b4bb
000003e0: 0949 a53d df62 1ebc 0070 f137 1943 fabc
000003f0: e96e ee3c 7eba abbc 5ae3 ac3c 2151 55bd
0.020375041 0.014765273 -0.0028384007 -0.02737048 -0.0030796563 0.019993166 -0.027675716 0.031263802
-0.012230987 -0.042791836 0.015550303 0.012884825 -0.04892138 0.008622921 -0.0088089835 0.014830002
0.011653444 -0.054353047 -0.038089056 0.015860485 0.009556 -0.08103429 -0.04541958 -0.03849047
-0.048097484 0.030544985 -0.0054222136 -0.0063346 0.016393287 -0.040414337 -0.0415137 -0.013067648
-0.036174454 -0.019068666 -0.017094288 0.029715441 -0.06399475 -0.00573571 0.0009133511 0.036571667
0.045583524 0.029351557 -0.036172386 0.010179515 -0.02758189 -0.04853822 -0.026175864 -0.041371718
-0.03272352 0.007865048 -0.021420505 0.018780822 0.0016972512 -0.044203192 -0.015208006 0.023161624
0.025786044 0.013733389 -0.034224663 -0.02889086 -0.026594557 0.011626056 0.022006359 -0.01294623
-0.02916377 -0.036993556 -0.050093856 -0.04155709 -0.011153606 -0.04137861 -0.047092043 -0.0043352363
-0.04471575 0.029913291 0.00049876946 -0.0380144 -0.039398033 -0.0009987209 -0.022028452 -0.014942509
-0.042844787 -0.035091724 -0.0030163473 0.023976358 0.006837616 0.034384463 -0.002959212 0.044278163
-0.021898102 -0.043349404 -0.0050147898 0.013388502 -0.0037988713 0.0019599383 0.017423272 0.020989643
-0.010806511 -0.04454212 0.014580342 0.020876804 0.028594883 -0.01017902 0.019024676 0.009555053
-0.014627372 0.021692626 0.019768167 0.032766577 0.012070998 0.06587561 0.06657287 -0.019658469
0.043154947 0.02219633 -0.03494625 0.002745558 0.014346467 -0.026556946 -0.03534514 0.0090808915
0.015630556 -0.007129074 -0.0036694147 -0.012865697 -0.04558996 0.03152576 -0.034981888 -0.017004725
-0.015342012 0.0067021367 -0.006756764 -0.03264851 -0.031477373 0.040795457 0.031245915 -0.0436065
0.026528388 0.017489374 -0.05153326 -0.019395897 -0.035848506 0.024541171 0.0041448064 0.012541231
-0.015875684 -0.011618102 0.025757594 -0.0015983935 0.0071086506 -0.022395821 -0.025592249 0.002213813
0.017587692 -0.0019828524 -0.014643059 0.045121722 -0.025416743 0.040657498 0.002774689 0.05161893
-0.008705811 0.008065371 0.040517613 0.007662049 0.056887396 0.05903821 0.033793665 -0.02834476
-0.023122467 0.018199105 0.04723283 0.008895238 0.020527044 -0.031252034 -0.008204853 0.022494318
0.05426276 -0.036979016 0.008809357 -0.04240357 0.0028801472 0.015721338 0.0265861 -0.010289829
-0.012160519 -0.019909153 -0.007920432 0.029976392 -0.018068109 0.009182531 -0.0047891326 -0.011123677
-0.03662781 0.0250567 -0.02377304 0.024707494 0.031141631 -0.02570747 0.0093458425 -0.0041053644
0.016186712 -0.034395657 0.005806322 -0.036118217 0.011487593 -0.0061379075 0.0009748037 0.028651614
0.004698114 0.01785492 -0.012248353 -0.03992286 -0.040251285 -0.022469683 -0.03365391 -0.036867626
-0.02667347 -0.014468598 0.002667405 -0.02105448 0.003723941 -0.032082424 0.024864074 -0.015529135
-0.025160514 -0.013968795 -7.10137e-05 -0.014926265 0.004830901 0.010919366 -0.010431637 -0.0044424585
-0.034629636 0.013372549 -0.0043789484 0.06665019 -0.011944012 -0.054042067 0.073088095 0.04569359
0.035720877 -0.024817614 0.012476229 -0.020818336 -0.011195351 -0.0349702 -0.015172612 -0.0055064377
0.08070571 -0.009667127 2.8781593e-05 -0.030549573 0.02910562 -0.02096295 0.021104503 -0.052079324

model.11.bias f4 [128]
00000000: 8e79 0abd 06fb dcbc 2a40 d03c be8c b6bb
00000010: ec9b aebc 2a64 47ba f884 663c 103c 03bc
00000020: 1f38 b0bc 5c92 1ebc 221a cdbc bc38 80bd
00000030: f75f 70bc 9902 36bb c3a6 8ebc d914 26bd
00000040: 1687 0dbd 8617 09bd aa8e 1cbd 8c77 eebc
00000050: db0d 11bd 5c64 9b3b a9d5 32bc 71ad 72bc
00000060: 7523 3abd fa3d 0e3c 06c7 1cb9 1a5c c1bc
00000070: 294a 363c b2a2 4abd 55e5 cabc 8f7c d53b
00000080: d9b4 0a3c b0c7 c43c 805b f4bc 2ec8 b93c
00000090: a3f9 2dbd 1c30 84bc 22fd fdbc ee21 983c
000000a0: cc68 8f3c a6ff dabc a7f4 4bbd e5df 643c
000000b0: 3ff9 94bc 09fe 453c 650f 91bc 3c3a 27bc
000000c0: 7ae5 95bc d527 ddbb 9b81 4cbc e699 a73c
000000d0: f325 dfbc d292 8ebc ef10 02bc 1249 02bc
000000e0: f940 10bc bfe6 26bd 91d4 853b 2406 c33c
000000f0: ba04 08bd 0369 b23b cf1c 803b eb68 c33c
00000100: 8edb 50bc 6ea5 fdbc 0b14 c5bc 4bbb b3bc
00000110: 5eca 60bd 4f6e 28bd 0356 29bd f046 033c
00000120: 39f6 32bc 466d b03c 03db 1e3c fa75 dfbc
00000130: f287 283b f89c 9bbc e738 6f3c 4738 a8bd
00000140: 9191 35bd 7b50 8b3a 0494 a7bc 6ca1 e4bc
00000150: 6adc 9c3c fa02 b9bc 25e5 93bb 7339 b5bb
00000160: 7347 eeba c540 64bc 6888 6ebc e4f3 f2ba
00000170: b93c 61bd c125 a0bc 43d0 ebbc 6348 8f3b
00000180: 46d2 48bb 6a0a 0cbc 42b5 f8bb ed2a 0c3d
00000190: 0c01 0bbd 313a b2bc 58b6 f2bc a454 0fbc
000001a0: 8f0f 8739 c5a2 193b 143a 12bd ad59 2cbc
000001b0: 327c f43a 5d73 19bd dec0 debb 3902 573c
000001c0: 3c4a 60bc 39a9 d9bb 559d 60bc 59ad 48bb
000001d0: 749b 34bd 9f7c 03bd e9a6 4cbc 1ef4 e93b
000001e0: dc43 b4bc be50 a73b 721f afbc 3e15 20bd
000001f0: c561 bc3c b308 f3ba 98ca 053c a828 83bc
-0.03380733 -0.026975166 0.02542122 -0.005570977 -0.021314584 -0.0007606173 0.014069788 -0.0080099255
-0.021511136 -0.0096784495 -0.025036875 -0.06260821 -0.014671317 -0.0027772544 -0.017413503 -0.040547226
-0.034552656 -0.0334697 -0.038221993 -0.029109739 -0.035413604 0.0047421884 -0.010915198 -0.0148118595
-0.04544397 0.008681769 -0.00014951461 -0.023603488 0.01112608 -0.049471565 -0.024767557 0.0065150927
0.008465969 0.024021 -0.029828787 0.02267846 -0.0424744 -0.016136222 -0.031004492 0.018570866
0.017506026 -0.02673323 -0.049793866 0.013969396 -0.018185256 0.0120844925 -0.017707536 -0.010206755
-0.0182979 -0.006749133 -0.012482072 0.020459127 -0.027239775 -0.017403994 -0.007938608 -0.007951992
-0.008804553 -0.0407474 0.004084178 0.023806639 -0.033207633 0.0054446473 0.0039096843 0.02385374
-0.012747658 -0.030962672 -0.024057409 -0.021939894 -0.054880492 -0.041120823 -0.041341793 0.008012518
-0.010922962 0.02153648 0.009695771 -0.027277935 0.0025715795 -0.018995747 0.014600969 -0.08213859
-0.044328276 0.0010628843 -0.020456322 -0.027909003 0.01914807 -0.022584427 -0.0045134 -0.00553053
-0.0018179253 -0.013931458 -0.014558889 -0.001853582 -0.05498955 -0.019549252 -0.02878583 0.004372643
-0.003064291 -0.008547405 -0.007589967 0.034220625 -0.033936545 -0.021756263 -0.029627964 -0.008748207
0.000257608 0.0023442965 -0.03569992 -0.010519427 0.0018652736 -0.037463535 -0.006797894 0.0131230885
-0.013689574 -0.0066424874 -0.013709386 -0.0030620901 -0.044093564 -0.03210127 -0.012490966 0.0071396967
-0.022005014 0.0051060608 -0.021377299 -0.039082758 0.022995839 -0.0018542021 0.008165978 -0.016010597

model.14.weight f4 [128]
00000000: 10bf 7c3f ef29 7a3f 7bcc 803f 3803 753f
00000010: 2d51 803f 1e5a 803f 7dc3 7f3f f2b5 7e3f
00000020: 1d34 813f 65f4 7c3f a782 813f 23be 7b3f
00000030: 135a 7c3f 1d6d 823f f647 873f dd2f 7f3f
00000040: bbe1 7f3f 525a 7e3f 6938 7e3f 555f 7e3f
00000050: 8171 7e3f 25fa 803f a83b 833f ca47 823f
00000060: ef36 7a3f abfd 7b3f ccd8 7c3f fda4 793f
00000070: 1a0c 813f 6d30 7c3f 2323 803f bb71 8c3f
00000080: c106 7e3f 2845 803f 64f5 853f 1e94 7c3f
00000090: b0d6 7c3f e567 873f 32f8 863f 32d5 793f
000000a0: 3bff 813f 1627 7c3f ac41 7f3f b06d 803f
000000b0: a4e1 823f 6e72 843f d3b5 7d3f 0595 7c3f
000000c0: 24d8 7a3f af43 7e3f 2783 7b3f 172c 7b3f
000000d0: 2d1d 803f 26ca 773f e1ce 823f bb54 813f
000000e0: 1b4c 813f 06e5 7a3f 352d 803f 463c 813f
000000f0: 3d84 7f3f 7afe 7a3f 9a76 7e3f 2c80 7d3f
00000100: 2fbd 783f 6929 7c3f 0961 7e3f 1b22 823f
00000110: aa5b 783f 32b1 7a3f af22 813f 733b 7b3f
00000120: 2165 7e3f 9569 803f 1fa9 793f 9454 7e3f
00000130: 476a 823f f549 823f 6b9c 773f 5490 753f
00000140: 71a6 813f bf73 7e3f d0cf 7a3f 15f8 7b3f
00000150: 403a 8a3f 4c44 7e3f 658c 803f b388 813f
00000160: e704 7f3f 848f 7d3f 93d7 803f c309 803f
00000170: 6b60 823f d3f9 883f beca 813f 0d23 8f3f
00000180: 5aa5 7d3f e012 833f 7d6b 823f d37a 7e3f
00000190: 7025 813f 2159 823f bcc3 793f ecbf 813f
000001a0: 1564 7f3f 2363 773f ab75 7a3f 88d6 803f
000001b0: 9347 803f 9726 813f d028 7d3f 7b79 7b3f
000001c0: 251b 813f 4681 803f b534 7d3f 7162 7c3f
000001d0: dc6e 7e3f bdf4 7c3f ecb4 7d3f 69b0 7e3f
000001e0: 1518 7b3f bfa8 803f 9ab0 7e3f 6cf8 793f
000001f0: de16 833f ddd5 783f b39a 813f 9330 833f
0.9872904 0.97720236 1.0062402 0.95708036 1.0024773 1.0027502 0.99907666 0.99496377
1.0094029 0.98810416 1.0117997 0.98337 0.9857494 1.0189549 1.0568836 0.9968241
0.9995381 0.9935657 0.99304825 0.99364215 0.99391943 1.0076338 1.0252581 1.0178158
0.9774007 0.9843394 0.98768306 0.9751738 1.0081818 0.9851139 1.0010723 1.0972208
0.99229056 1.0021105 1.0465512 0.9866351 0.9876509 1.0578581 1.0544493 0.97590935
1.0156015 0.9849714 0.9970958 1.0033474 1.022511 1.0347421 0.99105567 0.98664886
0.97986054 0.99322027 0.98247 0.9811415 1.0008904 0.9679283 1.0219384 1.0103983
1.010135 0.9800571 1.0013796 1.0096519 0.99811155 0.9804455 0.9939972 0.990237
0.9716367 0.98500687 0.99366814 1.0166658 0.9701487 0.9792663 1.008871 0.9813759
0.9937306 1.0032221 0.97523683 0.99347806 1.0188683 1.017882 0.9672305 0.9592335
1.0128919 0.99395365 0.97973347 0.9842542 1.0799026 0.9932296 1.0042845 1.0119842
0.99616855 0.9904711 1.0065788 1.0002979 1.0185674 1.070124 1.0139997 1.1182572
0.9908043 1.0240135 1.0189053 0.99406165 1.008955 1.018345 0.9756429 1.0136695
0.9976209 0.96635646 0.978358 1.006547 1.0021843 1.0089902 0.988904 0.9823224
1.0086409 1.0039451 0.9890855 0.9858771 0.9938791 0.9881094 0.9910419 0.9948793
0.9808362 1.0051497 0.9948822 0.97644687 1.0241354 0.9720133 1.0125335 1.0249199

model.14.bias f4 [128]
00000000: 1630 c83b 35b9 92bb df40 6c3c 24d0 a13c
00000010: c646 3e3b 130d 9f3c 45a2 af3a 4891 a13c
00000020: 6fc1 e83c 1b05 a73c b46e 31bb 3772 4a3b
00000030: 637d 82bb 34d7 063d e02a cb3b b356 fe3b
00000040: 695c 86bc 17e9 593c ad61 d43b 5899 de3b
00000050: e710 bcbb c7c3 7b3c 69da a5ba a43d 823c
00000060: 3779 6abb 2f06 f13b 52ef 5c3c 9953 573b
00000070: 1452 57bc 712d eebb 3559 023d 4cdc a03c
00000080: c95d 843b 389a ce3b 7ef0 83bc 78f7 3b3b
00000090: b49d 473b d51a bb3b aa07 63bc a376 543b
000000a0: 467f febb a7a6 743c 592f 373b ca26 133b
000000b0: 8ca9 623c 874d ff3b 7d2a ec3c 5b3d a13b
000000c0: dbb6 0b3c cf34 e83c b192 cf38 3001 533b
000000d0: 024c b03b 4d1e 453b a8f7 c03c 3934 60bb
000000e0: d33d 333c 3b56 7d3b 2819 b2bb d23f 16bc
000000f0: cf72 633c 12f0 113b 9544 b93b fc67 53bc
00000100: 92a9 edb9 bc9b 673b 09ff 6c3c 9d83 bfb9
00000110: 68ee ee3b c05f a53c d7ba 9fb8 71ae 953b
00000120: 8020 1c3d e378 c43b 9b57 053c 30d1 003d
00000130: 8dd4 9a3a cd50 483c 3427 9bba 5609 b5ba
00000140: 22e0 533c 9f71 583b 8dc2 453b bcdc c03c
00000150: e37d 5d3c 1284 b43c 4ab6 bf3c e1da cb3b
00000160: cff3 013c 5d44 0a3a 815e 163c 94e0 853b
00000170: 8c82 923a 8f45 ce3b 6c13 2dbc 38ed 8e3c
00000180: ed1b 833a 30f0 7ebc 7811 653c 1ecd 973c
00000190: a59a f63b db48 d63b 933f 083c 28eb 143d
000001a0: b21b e1bb f7a1 bb3c 7600 ac3b 3b9f a63a
000001b0: 98c8 eab8 0c11 7cbb c4d1 843b 4655 c13c
000001c0: 2ca7 f73c 6087 b5b9 8193 ad3c 46e1 873b
000001d0: 13ba 43bc 947b 993c abd0 ebbb 1b02 8e3b
000001e0: 83e1 433c 5e40 a03c fcf5 ec3c 5d3f c93b
000001f0: 175b 853c 25b6 9f3c 8118 553b 9d72 c63c
0.006109248 -0.004477645 0.014419763 0.01975257 0.0029033883 0.019415414 0.00133998 0.019722596
0.028412549 0.020388177 -0.002707404 0.0030890831 -0.0039822324 0.032920077 0.0062001795 0.0077618
-0.016401486 0.013300202 0.0064813704 0.0067931823 -0.0057393196 0.015366501 -0.0012653592 0.015898533
-0.0035777816 0.0073554735 0.013484793 0.0032856225 -0.013142128 -0.0072686006 0.031823356 0.019636296
0.0040395004 0.0063050054 -0.016105887 0.0028681438 0.0030458989 0.0057099857 -0.013856808 0.0032419346
-0.007766637 0.014932311 0.0027951805 0.002245354 0.013834368 0.0077912244 0.028828854 0.004920644
0.008527483 0.028345494 9.8978526e-05 0.0032196753 0.0053801546 0.0030077875 0.023555592 -0.0034210815
0.010940033 0.0038656134 -0.0054351278 -0.009170489 0.013882353 0.0022268337 0.0056539276 -0.01290321
-0.00045330502 0.0035340628 0.014465102 -0.00036528418 0.007291604 0.020187259 -7.6165124e-05 0.004567914
0.038116932 0.005995856 0.008138563 0.031449497 0.0011812613 0.012226296 -0.0011837245 -0.0013811986
0.012931855 0.0033026708 0.0030175776 0.023542754 0.013518783 0.022035632 0.023402352 0.0062211608
0.007931664 0.0005274469 0.009177805 0.0040856097 0.0011177822 0.006294913 -0.010563713 0.0174471
0.0010002829 -0.015560195 0.013981216 0.018530425 0.0075257593 0.006539447 0.0083159385 0.036357075
-0.0068697566 0.02290438 0.0052490784 0.0012712249 -0.00011195353 -0.003846231 0.0040533263 0.023600232
0.030231081 -0.00034623872 0.0211885 0.0041467277 -0.011946219 0.018735684 -0.007196506 0.004333747
0.011955622 0.019561943 0.028925888 0.0061415867 0.016278787 0.019496033 0.0032515826 0.024224574

model.14.running_mean f4 [128]
00000000: 2ee5 52bc 935c e5bb 2807 ae3a d2db c5bb
00000010: a3f6 15bc e6c1 983a 9a2b a73c a0d6 b9bb
00000020: 0f71 0c3c de60 b7ba 18ad d8bb eab6 19bc
00000030: 71e1 063b 0b62 aaba 0b45 b5b6 a9e7 24bc
00000040: 997b 50bc 2d45 f1ba 2d12 b4bb 57d0 f1bb
00000050: 21d2 dbbb 2f4c a43c c56e f2bb 11b4 b4ba
00000060: d95d 2abc 5233 8ebb c3e5 9f3b ab66 20bc
00000070: a2f5 343c bb42 50bc 7838 87b9 3ef0 bd3a
00000080: ec62 a8bb f339 3e3b e608 f7ba 418c a43c
00000090: 8f0f 91bc 2748 e23a cf2e 19bc 2686 36bb
000000a0: 51fd 403d be1a 1cbc b63b 1abc e6e9 eb3b
000000b0: bbd5 3aba 74e4 b1bb 6f6a d73b 2aed 67bb
000000c0: b14a 3fbc e0ce edba 62d6 6ebb 3efc c73c
000000d0: 5d52 babb 2bcc 99ba fe97 623a d831 ccbb
000000e0: e374 143c bce0 efbb acb8 403c 7c46 bbbb
000000f0: 40c3 debb 591c 393a eff3 933c e68a 88bb
00000100: 0c4e 33bb 20e7 0dbc 77ad 7cb9 1e5b e2ba
00000110: de76 68bc 9160 63bc ac70 bbbb f4c4 093c
00000120: 3d91 033c 48f3 1a3d 67b2 69bb caa0 31bb
00000130: 46c4 21b8 1f1f c13a 49ec d9bb b597 a0bc
00000140: 3ffb 46bc 49d9 75bb 3a54 b2bb 2b61 ecbb
00000150: 3173 f53b 55dd 7fbb 7ef6 9f39 2b4d 80bb
00000160: 0974 16bb 7c24 1a3c 9b41 a0bb 2f89 3ebb
00000170: 98ef 6fbc ce6f f83a 8063 15bc 8300 083b
00000180: 51f0 533b 5604 12bc 83b2 49bc 1669 1b3d
00000190: be83 8bba 84db 6ebb 33a4 f7bb 15fd 303c
000001a0: 461d ccbb c50a 98bb 5242 3dbb b320 c53b
000001b0: f82b 18bc 74b7 30bc 292e f4ba 1e30 893b
000001c0: 03de c73b 328d 22bc e9ef 04bc f456 b53c
000001d0: 2364 97bb be9a ea3b 3d3b 923a b461 ce3c
000001e0: 5a25 c2bb 533c f439 f1ca 333a 1f70 9cbb
000001f0: dd40 00b7 f08d dbbb 7735 503c 7da2 4a3c
-0.0128720235 -0.006999561 0.0013277279 -0.0060381675 -0.009153041 0.0011654466 0.020406533 -0.0056713372
0.008571877 -0.0013990661 -0.0066124313 -0.009381989 0.002058115 -0.001299919 -5.402258e-06 -0.010064998
-0.0127247805 -0.0018407457 -0.005495331 -0.0073795724 -0.006708399 0.020055858 -0.0073984587 -0.0013786574
-0.010398352 -0.004339614 0.0048796847 -0.009790103 0.011044892 -0.012711222 -0.0002579128 0.0014491153
-0.0051387455 0.002902624 -0.0018847256 0.02008641 -0.017707614 0.0017263935 -0.009349539 -0.0027850955
0.04711658 -0.00952786 -0.00941365 0.0071995137 -0.0007127185 -0.005428845 0.006573967 -0.0035389164
-0.011675523 -0.0018143319 -0.00364437 0.02441227 -0.005686088 -0.001173382 0.00086438644 -0.006231528
0.009061071 -0.0073204916 0.011762779 -0.0057151895 -0.006798178 0.0007061414 0.018060653 -0.0041669486
-0.0027359752 -0.0086610615 -0.00024097213 -0.0017269587 -0.014188496 -0.013878004 -0.0057202186 0.008408774
0.008030233 0.037829667 -0.0035659315 -0.0027103894 -3.8568185e-05 0.0014734006 -0.006650482 -0.01960359
-0.012144863 -0.0037513545 -0.0054421695 -0.0072137318 0.0074905385 -0.0039041836 0.00030510494 -0.003915449
-0.0022957346 0.009408113 -0.0048906333 -0.0029073467 -0.014644526 0.0018954219 -0.009117961 0.0020752258
0.0032339285 -0.008912167 -0.012310627 0.037942015 -0.0010644121 -0.003644676 -0.007557416 0.010802527
-0.0062290756 -0.0046399557 -0.0028878641 0.006015861 -0.009287827 -0.010785926 -0.001862948 0.004186644
0.006099464 -0.009921359 -0.00811384 0.022136189 -0.0046200915 0.00715956 0.001115657 0.025193073
-0.005924863 0.00046584252 0.0006858549 -0.004774108 -7.644497e-06 -0.00670027 0.0127080595 0.012367842
